model.pth (torch_old, 4319 bytes, 5 tensors)

weight f4 [5, 4]
000000 83 75 a5 3e 3c 7c 1c 3f ac 7f e2 3e dc c2 ec 3e
       0.32316217 0.61127067 0.4423803 0.46242416
000010 92 0d 6e bd 34 15 b4 bd 2e 48 47 bf 19 3b 94 3e
       -0.05811841 -0.08793107 -0.7784451 0.28951338
000020 18 97 d9 3e 91 34 70 be df 6b 44 3f 5c a1 c8 3d
       0.42498088 -0.23457552 0.767271 0.09796402
000030 17 ae b5 3e 0a dd 65 3d 1a 84 69 3e 10 d4 ab bd
       0.35484383 0.056119002 0.22804299 -0.08390057
000040 8f cb e2 3e b2 38 f9 bd 67 70 55 bf 31 12 fb 3d
       0.44295928 -0.12169017 -0.8337464 0.12259329

bias f4 [5]
000000 96 01 5d be 7a f1 96 bd 81 61 46 be 05 24 a3 3e
       -0.21582636 -0.07370277 -0.19373132 0.31863418
000010 5b 7b d3 be
       -0.4130505

weight f4 [3, 5]
000000 40 1e 53 be 06 50 01 be e6 ac 89 be c8 e3 2c 3d
       -0.20617008 -0.12628183 -0.26889724 0.042209417
000010 f7 26 e2 be 70 cd d6 3e 2d 87 c0 be a0 35 9f 3e
       -0.44170353 0.4195361 -0.3760313 0.310956
000020 83 6c 55 3d 70 f0 13 be d1 55 85 3e 62 1b 86 3d
       0.052105438 -0.14447188 0.26042035 0.065481916
000030 23 63 ca 3e eb fe 8f 3d 7d 96 11 be
       0.3952876 0.070310436 -0.14217563

bias f4 [3]
000000 e8 15 f6 3d a5 1d da bd ec 5c 31 3e
       0.12015897 -0.106501855 0.17320603

weight f4 [1, 3]
000000 ea f5 03 3f 87 49 b3 3e cf a9 7b be
       0.5154711 0.35017034 -0.24576496
